src/vne/models/simpleModel_ini-Kaiming.onnx (onnx, 13725 bytes, 12 tensors)

gen_model.0.bias f4 [10]
000000 00 00 00 00 00 00 00 00 00 00 00 00 00 00 00 00
       0.0 0.0 0.0 0.0
000010 00 00 00 00 00 00 00 00 00 00 00 00 00 00 00 00
       0.0 0.0 0.0 0.0
000020 00 00 00 00 00 00 00 00
       0.0 0.0

gen_model.1.bias f4 [25]
000000 00 00 00 00 00 00 00 00 00 00 00 00 00 00 00 00
       0.0 0.0 0.0 0.0
000010 00 00 00 00 00 00 00 00 00 00 00 00 00 00 00 00
       0.0 0.0 0.0 0.0
000020 00 00 00 00 00 00 00 00 00 00 00 00 00 00 00 00
       0.0 0.0 0.0 0.0
000030 00 00 00 00 00 00 00 00 00 00 00 00 00 00 00 00
       0.0 0.0 0.0 0.0
000040 00 00 00 00 00 00 00 00 00 00 00 00 00 00 00 00
       0.0 0.0 0.0 0.0
000050 00 00 00 00 00 00 00 00 00 00 00 00 00 00 00 00
       0.0 0.0 0.0 0.0
000060 00 00 00 00
       0.0

gen_model.2.bias f4 [50]
000000 00 00 00 00 00 00 00 00 00 00 00 00 00 00 00 00
       0.0 0.0 0.0 0.0
000010 00 00 00 00 00 00 00 00 00 00 00 00 00 00 00 00
       0.0 0.0 0.0 0.0
000020 00 00 00 00 00 00 00 00 00 00 00 00 00 00 00 00
       0.0 0.0 0.0 0.0
000030 00 00 00 00 00 00 00 00 00 00 00 00 00 00 00 00
       0.0 0.0 0.0 0.0
000040 00 00 00 00 00 00 00 00 00 00 00 00 00 00 00 00
       0.0 0.0 0.0 0.0
000050 00 00 00 00 00 00 00 00 00 00 00 00 00 00 00 00
       0.0 0.0 0.0 0.0
000060 00 00 00 00 00 00 00 00 00 00 00 00 00 00 00 00
       0.0 0.0 0.0 0.0
000070 00 00 00 00 00 00 00 00 00 00 00 00 00 00 00 00
       0.0 0.0 0.0 0.0
000080 00 00 00 00 00 00 00 00 00 00 00 00 00 00 00 00
       0.0 0.0 0.0 0.0
000090 00 00 00 00 00 00 00 00 00 00 00 00 00 00 00 00
       0.0 0.0 0.0 0.0
0000a0 00 00 00 00 00 00 00 00 00 00 00 00 00 00 00 00
       0.0 0.0 0.0 0.0
0000b0 00 00 00 00 00 00 00 00 00 00 00 00 00 00 00 00
       0.0 0.0 0.0 0.0
0000c0 00 00 00 00 00 00 00 00
       0.0 0.0

gen_model.3.bias f4 [25]
000000 00 00 00 00 00 00 00 00 00 00 00 00 00 00 00 00
       0.0 0.0 0.0 0.0
000010 00 00 00 00 00 00 00 00 00 00 00 00 00 00 00 00
       0.0 0.0 0.0 0.0
000020 00 00 00 00 00 00 00 00 00 00 00 00 00 00 00 00
       0.0 0.0 0.0 0.0
000030 00 00 00 00 00 00 00 00 00 00 00 00 00 00 00 00
       0.0 0.0 0.0 0.0
000040 00 00 00 00 00 00 00 00 00 00 00 00 00 00 00 00
       0.0 0.0 0.0 0.0
000050 00 00 00 00 00 00 00 00 00 00 00 00 00 00 00 00
       0.0 0.0 0.0 0.0
000060 00 00 00 00
       0.0

gen_model.4.bias f4 [10]
000000 00 00 00 00 00 00 00 00 00 00 00 00 00 00 00 00
       0.0 0.0 0.0 0.0
000010 00 00 00 00 00 00 00 00 00 00 00 00 00 00 00 00
       0.0 0.0 0.0 0.0
000020 00 00 00 00 00 00 00 00
       0.0 0.0

gen_model.5.bias f4 [5]
000000 00 00 00 00 00 00 00 00 00 00 00 00 00 00 00 00
       0.0 0.0 0.0 0.0
000010 00 00 00 00
       0.0

31 f4 [5, 10]
000000 aa 1c c7 be 5f 27 68 be 1e 8b 96 be 90 4c be 3e
       -0.38889056 -0.22671269 -0.29403013 0.37167788
000010 05 25 12 3f 42 a1 67 bd 4f 69 b5 be 0e 6b f2 3e
       0.5708774 -0.05655027 -0.35431907 0.473473
000020 0d 24 5c 3e 8f 70 fa 3f 82 49 ae 3e bc be 32 3f
       0.21498127 1.95656 0.34040457 0.6982229
000030 b6 b8 89 ba 43 ad 1f 3f f7 62 11 bf 1c 82 b0 be
       -0.0010507319 0.6237375 -0.56791633 -0.34474266
000040 27 d7 42 bf 0a f1 25 be 4c 2a 08 bf 93 9e 3c bf
       -0.76109546 -0.1620523 -0.5318954 -0.73679465
000050 69 fb cb 3f 32 77 31 bd 95 63 79 be 53 8a 3b 3f
       1.5936099 -0.043326564 -0.24354394 0.7325794
000060 02 31 7b 3f d8 27 2b be 65 ca c0 be cf 8c 08 be
       0.98121655 -0.16714418 -0.37654415 -0.13334964
000070 f0 e9 46 bf 43 a0 27 bf 1f e2 03 3f 5c 25 75 be
       -0.7770071 -0.65478915 0.5151691 -0.23940033
000080 4c 4f 80 bf 89 23 93 be 36 c4 58 3e ce f3 d9 3d
       -1.00242 -0.2873805 0.21168599 0.10642205
000090 fe 18 ba 3f 7e d1 38 3f 98 b3 43 3f f9 fd 1f bf
       1.4538877 0.7219466 0.76445913 -0.62496907
0000a0 37 5f bd be 87 d6 9d 3e 2e b5 d3 3e 31 4e 06 3e
       -0.36986706 0.30827734 0.41349167 0.13115765
0000b0 49 4c 56 3e a8 92 00 3e 29 4d cc 3e 8d 66 59 3f
       0.20927538 0.12555945 0.3990262 0.84922105
0000c0 7b 23 fa 3e c2 e0 68 bf
       0.48855194 -0.90967953

32 f4 [10, 25]
000000 b1 e8 97 bc f8 f1 3a 3e f6 82 21 be 53 62 ca 3c
       -0.018543573 0.18256366 -0.15772614 0.024705088
000010 ce 8b 07 3d ad f8 1a 3e ee 76 b3 be 64 5f fd bd
       0.033092313 0.15133925 -0.35051674 -0.1237171
000020 ec b7 97 3d d4 2f 85 3e 04 1e a7 be b9 da fa bd
       0.07408127 0.26013052 -0.32640088 -0.12248749
000030 5f f3 6c 3e 6f aa 07 bf 82 5b a6 3e 7c 6c 1f 3d
       0.23139714 -0.52994436 0.3249169 0.038921818
000040 7c d0 fc 3e 03 da 99 3d b6 9f ed bd fb 4a 5c 3d
       0.4937781 0.075122856 -0.11602728 0.053782444
000050 72 20 4e 3e 68 19 42 3f c9 d2 be be 4e 30 83 be
       0.20129564 0.75820017 -0.3727019 -0.2562279
000060 02 2f 1f 3f 38 b8 76 be 14 70 f7 be 24 ce 88 be
       0.62181103 -0.24093711 -0.48327696 -0.26719773
000070 d2 13 d3 3e f5 f6 c5 3d ba c7 34 3d fa a6 df be
       0.4122606 0.09666244 0.044135787 -0.4368208
000080 ef d0 f6 be 0b 17 93 3f 62 f5 56 bf 0a e0 92 3d
       -0.4820628 1.1491407 -0.83968174 0.07171638
000090 db 39 c9 3e fc d9 99 3e a6 05 f8 3e d8 d4 ec be
       0.39301953 0.3004912 0.4844181 -0.46256137
0000a0 5e b4 26 be af 39 8c bf f7 97 eb bd e5 a8 24 be
       -0.16279742 -1.0955104 -0.11503594 -0.16080053
0000b0 4a 55 9d be 4b a5 fa be 90 25 ac 3d 4b 9e 24 3e
       -0.30729133 -0.48954234 0.08405602 0.16076009
0000c0 11 7e cf 3e 81 d7 7a be 7d ed 0c 3d c0 33 a6 be
       0.4052587 -0.2449627 0.034406174 -0.32461357
0000d0 92 db 16 3f 5f 08 b8 3e c6 8e b4 be 5a 6f fd be
       0.5892879 0.35943887 -0.35265177 -0.49499017
0000e0 67 9b 91 3e 9c 60 a9 bc d0 68 89 bc aa 5f 8f 3e
       0.28438875 -0.02067595 -0.016773611 0.28002673
0000f0 61 f3 87 3e 7a 38 66 be ed 35 89 3e 98 ee 0b 3f
       0.2655287 -0.22482482 0.26798955 0.5466094
000100 16 a3 7d 3d 52 3e 86 be 72 31 62 bd f1 f7 11 3e
       0.06192311 -0.26219422 -0.055222936 0.14254738
000110 ee 6a b9 bd c0 32 11 3f 87 6e e4 bc 59 6d 13 3f
       -0.09053598 0.56718063 -0.027884735 0.57588726
000120 4e 9f a1 3e c0 05 94 3b b1 6d bf be 52 36 72 be
       0.31566852 0.004517287 -0.37388375 -0.23653534
000130 0f 0f ca 3e ab e3 06 3f 00 77 55 3e 86 f3 4c 3e
       0.39464614 0.52691144 0.20846176 0.20014772
000140 20 b6 38 3d 35 b7 c5 3d 72 be 0d 3f 0f 7f c7 3e
       0.045095563 0.096540846 0.5536872 0.38964126
000150 ce d3 5a 3f 2a 37 bb be a8 5f 75 3e eb aa 19 3f
       0.8547944 -0.36565524 0.23962271 0.60026425
000160 c3 73 dc be ad fe 15 3e 2b 6a 0a be 5a 75 44 bf
       -0.4305707 0.14647932 -0.13517062 -0.76741564
000170 cd 83 f3 3e 60 0d 2e 3e 26 5f db 3d 75 d7 70 3e
       0.47561494 0.1699729 0.107115075 0.2351969
000180 5d 75 08 be ff a3 9b 3c d5 48 ec be 2a 42 c2 3e
       -0.1332602 0.018999098 -0.46149316 0.37941104
000190 3a fe da 3b 0b 38 70 3c 6e 4f af be a8 80 b2 3e
       0.006683138 0.014661799 -0.34240288 0.34863782
0001a0 99 29 80 be 21 6c 11 be ef 55 fa 3b 71 b2 c5 3e
       -0.25031736 -0.14201404 0.0076396386 0.38612702
0001b0 51 da 7a be 58 bb 19 bf c4 95 cb 3e 2c bc a8 be
       -0.24497344 -0.6005149 0.397627 -0.32956064
0001c0 89 c4 16 bf 1d 01 2a bf 37 bb 08 3f 26 22 c2 3c
       -0.5889364 -0.6640795 0.5341067 0.023697924
0001d0 bf b6 6d 3d f9 5a d0 be b6 f2 be 3e ec 41 1d 3e
       0.05803561 -0.40694407 0.3729455 0.15357178
0001e0 c0 75 08 3d 38 79 ee bd 11 67 24 3f 46 1d cf be
       0.03331542 -0.116442144 0.64219767 -0.4045202
0001f0 e0 e0 2d 3e bb 4e 08 3e 1d f9 a5 be eb 1d 90 3e
       0.16980314 0.13311283 -0.3241662 0.28147826
000200 df 10 d2 be 23 a1 a8 ba c7 12 2f bf 08 b6 02 3e
       -0.41028497 -0.0012865405 -0.68388027 0.12764752
000210 19 95 cc bd 4b 38 15 bf 2f 41 c4 bd 9e 68 c2 be
       -0.099893756 -0.5828902 -0.09582745 -0.37970442
000220 f5 b7 18 3f 9a 92 19 be 90 ae 37 3d 3b de 15 3f
       0.59655696 -0.1499733 0.04484421 0.5854222
000230 48 63 1b 3f ec c0 9b 3e f0 65 92 be 2c 9b 04 be
       0.60698366 0.30420625 -0.28593397 -0.12949818
000240 72 07 e6 3d be 27 ba be cc 9b 0b bf 22 36 e0 3e
       0.11231889 -0.36358446 -0.545346 0.437913
000250 3c 81 98 be 3d 08 0e 3e 32 e1 aa 3e 61 66 9a be
       -0.29786098 0.1387033 0.33374935 -0.30156234
000260 b5 a1 83 3d 5f 49 7c 3d 55 f9 91 3d d6 33 aa bd
       0.064273275 0.06159341 0.071276344 -0.08310668
000270 50 a2 01 bd 0f 1d 31 bf c8 22 fa bd 06 32 12 3e
       -0.031648934 -0.69184965 -0.12213665 0.14276895
000280 e3 55 38 3f 0b d1 ea be 15 02 98 3e 35 10 d5 3e
       0.7200605 -0.45862612 0.29689088 0.41613927
000290 28 d2 55 3e f7 ba 9b 3e a9 bf c9 be 79 e1 93 3d
       0.2088095 0.3041608 -0.39404038 0.0722074
0002a0 e5 90 ae 3e 60 92 84 3e 48 3b 21 bd 0b 6e b8 3e
       0.3409492 0.25892925 -0.039363176 0.36021456
0002b0 66 d1 24 3e 92 a7 86 3e 5c 38 d0 3d 31 8b 9e bd
       0.16095504 0.2629972 0.10167 -0.077413924
0002c0 17 d3 05 bc 45 86 a6 be 3d 70 74 3e 33 1a 20 3d
       -0.0081680035 -0.32524315 0.2387094 0.039087486
0002d0 d6 32 d2 be f5 93 60 3d c8 1c dd 3e b5 da 11 bf
       -0.4105441 0.054828603 0.4318602 -0.56974345
0002e0 e4 72 3e bf 36 24 0a 3d a0 74 18 3f 97 67 48 3e
       -0.7439406 0.03372594 0.59552956 0.19570766
0002f0 df 98 a0 3e fc a0 fb be be fb a0 3d d7 d9 34 3e
       0.3136663 -0.4914626 0.07860516 0.17661224
000300 f1 2b 61 bd 79 01 96 3b 62 85 e4 be e4 e2 e4 be
       -0.054973546 0.0045778123 -0.44633013 -0.44704354
000310 76 18 64 3d 00 47 1b bd 6b 9f 19 bf 2a f9 83 3e
       0.05568739 -0.037909508 -0.6000888 0.25776035
000320 86 e7 76 3e a5 29 c2 3d e2 ee 00 bf ae 9c c7 3e
       0.24111757 0.09480599 -0.50364506 0.38986725
000330 3a 11 16 be 43 6e 34 bf 04 62 03 bf 93 ea 05 3f
       -0.14655009 -0.70480746 -0.51321435 0.52311057
000340 a5 80 03 bd 7a 6e 34 3e fe 6b 3a bd f2 8e 23 3f
       -0.032105107 0.17620268 -0.045513146 0.6388999
000350 b8 b3 b6 3e 5f 90 83 3e ff 04 bf 3e 1a fa 0b be
       0.3568399 0.25696084 0.373085 -0.13669625
000360 2d 03 27 3e ff 95 69 be 00 ec 80 3e ff 6e 93 3e
       0.16309805 -0.22811125 0.25180054 0.2879562
000370 68 8b 20 3b 8a dd 2e be 1f 3f 49 3f f3 8d e5 3e
       0.0024497155 -0.17076698 0.7861194 0.4483486
000380 d2 2f a5 be 98 e7 d1 3e f7 11 4a 3e 82 52 d0 bd
       -0.32263047 0.40997005 0.19733416 -0.10171987
000390 95 04 a1 3e 30 91 9c be c5 c9 b8 3d 74 e9 b7 3e
       0.31448808 -0.3057952 0.090228595 0.35920298
0003a0 e8 6f 24 3f ae ae bb be 1c f9 c2 bd f6 82 c4 be
       0.64233255 -0.36656708 -0.0952017 -0.38381165
0003b0 44 2c 58 3e 6c 05 81 be 29 3b 89 3e 3f 62 9f bd
       0.21110636 -0.2519945 0.26802948 -0.07782411
0003c0 13 71 e4 bb de 6f 67 be 74 9c 5c 3e eb 5e 68 3d
       -0.0069714873 -0.22601268 0.21544057 0.056731146
0003d0 53 9f 15 bd e2 88 82 be ae 71 51 be 9d ae 67 be
       -0.036528897 -0.25495058 -0.20453522 -0.22625203
0003e0 47 28 21 3f 08 26 11 bf
       0.62952083 -0.56698656

33 f4 [25, 50]
000000 d1 18 7c bd 27 43 42 3e 9b 72 90 bd 04 72 0e bd
       -0.061547104 0.18970929 -0.07053109 -0.034776703
000010 99 8b 7d bd f8 79 fb bb 36 56 7b 3d b7 5d 0b 3a
       -0.06190071 -0.007674452 0.061361514 0.0005316394
000020 a2 1b 4c be 2d 56 62 be ba 6a 86 be 83 6e e5 3d
       -0.19932416 -0.22103186 -0.262533 0.11202719
000030 6d 50 2a bd b3 e8 62 bd a4 d1 86 bd 87 8a e4 bd
       -0.041580606 -0.0553977 -0.065829545 -0.111592345
000040 98 82 13 bd ea 5e 7d bd 84 28 05 bc 41 a8 74 bd
       -0.036013216 -0.061858095 -0.008127335 -0.059730772
000050 f7 c7 b3 3c 13 13 ef bb 5f f2 0f ba ed 43 04 bc
       0.021945937 -0.007295975 -0.0005491133 -0.008072835
000060 4a bb 48 3e f6 24 21 bd c7 61 82 bd ad 9c 41 be
       0.19602695 -0.03934189 -0.06366306 -0.18907423
000070 3d 3c 7e bd 52 ea 52 bd 9f 4a 88 be 9b ed 2e bb
       -0.062069166 -0.051492997 -0.2661943 -0.0026691917
000080 34 8d 21 3d 35 b4 fd 3d 17 3c 71 bc cb 6c 97 bd
       0.039441302 0.123878874 -0.014723799 -0.073937975
000090 3b 71 26 3e 44 c2 2f bd d6 30 ee bd 21 60 af 3c
       0.16254131 -0.042909876 -0.116304085 0.021408143
0000a0 92 64 04 3e eb 61 66 3e 86 2f b2 3d c9 2d 98 bd
       0.1292899 0.2249829 0.087004706 -0.07430608
0000b0 91 ec 84 3d b2 79 8e 3d ff fa 73 3d 75 71 14 3c
       0.06490434 0.06956805 0.05956554 0.009060253
0000c0 08 3b 65 be d3 da c5 bc a6 c5 6a be cb a3 73 3e
       -0.223858 -0.024152195 -0.2292696 0.23792951
0000d0 24 d5 a3 3d 8d 89 8a be f3 6a 67 be 57 00 88 3d
       0.07999638 -0.27058068 -0.22599392 0.0664069
0000e0 63 06 b9 3b 27 e2 ac 3c c2 cf b4 bd b6 ee 7b 3e
       0.0056465133 0.021103932 -0.08828689 0.2460278
0000f0 ef 3f 26 be 29 6c af 3c 88 c6 ae bd bd 61 ef 3c
       -0.16235326 0.02141388 -0.085339606 0.02922141
000100 00 5b ce 3c 0b 14 90 3c f9 2f 51 3d f9 9d 2c bc
       0.025189877 0.017587682 0.05107114 -0.0105357105
000110 51 16 82 bd e4 8f 37 be df 9a 64 be 79 7e 65 be
       -0.06351913 -0.17925984 -0.22324704 -0.22411527
000120 40 be d8 bd c2 52 08 3e 2d 7e b8 bd 4a bc 3d bd
       -0.10583162 0.1331282 -0.09008441 -0.046322145
000130 32 20 d2 3d 92 73 22 3d d9 2d 0c be d4 40 3c be
       0.10260047 0.039660998 -0.13689364 -0.18384105
000140 03 aa 95 3d 5c 8e 89 bd b3 d6 80 bd 1d 90 9b bd
       0.07307818 -0.06716606 -0.062909506 -0.07595847
000150 5b cf 77 3d 52 26 03 be b5 05 f4 bb 1c b0 32 be
       0.060500484 -0.12807587 -0.0074469694 -0.17449993
000160 7d c5 81 3e b7 62 16 3d 56 1a 86 bd a3 68 52 be
       0.25345984 0.036715236 -0.06547992 -0.20547728
000170 c6 64 5b be de 5a 90 be b0 f1 0b be 42 3d 87 3d
       -0.21425161 -0.28194326 -0.13666415 0.06603481
000180 b2 31 b0 3d b9 d3 10 3e 0b d1 d0 3d 93 1c 7e 3d
       0.08603229 0.14143266 0.10196122 0.06203897
000190 c0 8f 6d be 06 bf f5 3e 73 ec ce 3d ba 52 b4 bd
       -0.23199368 0.47997302 0.10103693 -0.08804841
0001a0 12 60 18 be 3e 41 d3 3d 73 6b 5f bd 9f b5 ef 3d
       -0.14880398 0.10315178 -0.05454583 0.11704563
0001b0 4f d3 39 be 15 85 7d 3e cc d2 b8 3c 92 cb 88 3e
       -0.18147014 0.24757798 0.022561453 0.26717812
0001c0 07 fc 41 3c 3a 53 dc bc ec 24 00 3e bc 02 ee 3e
       0.011839873 -0.026895154 0.12514085 0.4648646
0001d0 66 3a 79 3e 82 ab 86 be 49 5f 81 be 31 fd 8e be
       0.24338683 -0.26302725 -0.2526801 -0.27927545
0001e0 c0 01 69 3d 42 9c 0b bc 0b 6a ab bc 7c 7d 24 3e
       0.056886435 -0.0085211415 -0.020924589 0.16063493
0001f0 62 7f 64 3d e3 76 56 3a c0 10 32 3e ff 50 05 3e
       0.055785544 0.00081811677 0.17389202 0.13019179
000200 4f 91 68 bd 61 eb 43 bd e1 3e 01 3e 57 21 80 3e
       -0.056779202 -0.047831897 0.12621643 0.25025436
000210 48 5d de bc 1a a4 ee 3c 72 d7 4a bd 56 18 ac bd
       -0.02714409 0.029130984 -0.04952187 -0.08403079
000220 74 f5 e0 bd 24 ca 21 3e 73 a3 63 bd 6e 23 13 3e
       -0.109843165 0.15799767 -0.0555758 0.14368984
000230 13 c1 28 be 68 5a 0b be 1d a2 51 bd 8b 5a 98 bd
       -0.16479902 -0.13608706 -0.051179994 -0.07439145
000240 fa 74 77 3e 91 80 40 3d 69 cc 88 3d 81 c8 78 3e
       0.24165717 0.04699761 0.06679613 0.24295236
000250 2d ae 0d 3e 22 07 b8 3d 09 78 0e 3e 91 2b de bd
       0.13835974 0.089857355 0.13912977 -0.108481534
000260 6b b5 a8 be 83 b5 9b bc ee 2d 33 bd 0b fb 22 bd
       -0.3295091 -0.01900745 -0.043744974 -0.039790194
000270 e5 08 cf bc ac eb de 3d ff 49 e9 3d d4 c3 26 bc
       -0.025272796 0.108847946 0.11391067 -0.010178525
000280 c4 16 e4 3d 06 eb 7c 3e d0 56 1f be 1f 73 0b bd
       0.11137155 0.2469903 -0.1556046 -0.034045335
000290 a7 33 62 be 83 2d 12 bd 48 7d c6 3d d7 b9 f9 bd
       -0.22090016 -0.035687935 0.09691864 -0.12193649
0002a0 56 65 11 be ef 97 70 3d 70 b4 1d be d8 9a 89 bd
       -0.14198813 0.058738645 -0.15400863 -0.06718987
0002b0 82 54 8b be 3f d2 0e 3e 4f dd b4 bd 8c fc 10 bc
       -0.27212912 0.1394739 -0.08831274 -0.008849274
0002c0 82 0b eb bd ce 3d 98 3d b4 56 c3 3c 8a f2 0a 3d
       -0.11476804 0.07433663 0.023845054 0.03392271
0002d0 d9 ef 03 3e d2 ca 38 3e b8 d2 5a be 9b cf 40 bc
       0.12884463 0.1804612 -0.21369445 -0.011768247
0002e0 f8 ce 89 3b d8 f7 51 be d8 47 75 3e eb e5 3c be
       0.004205581 -0.20504701 0.23953187 -0.18447082
0002f0 52 8c fd 3c 13 0b c2 bd ba 32 8f 3c c2 d2 09 3c
       0.030950699 -0.094747685 0.017480243 0.008412065
000300 44 2c 56 be d8 1c dc bc 72 ea 83 3e 1e f6 5d 3e
       -0.20915323 -0.026869223 0.25764805 0.21675918
000310 cb 4e 3b bb 17 7a 00 3e 18 6a f6 39 f9 91 8b be
       -0.00285809 0.12546574 0.00046999822 -0.27259806
000320 a7 7b 83 3e b5 af 26 bc a6 a3 a7 3d 8a 90 62 be
       0.25680277 -0.010173728 0.0818551 -0.2212545
000330 1d 45 84 3d 1d 3b 49 3b 47 c0 30 bd d7 44 03 be
       0.06458495 0.00307054 -0.04315212 -0.12819229
000340 c6 d1 93 3c 4f 5d 39 be 13 97 09 be fb 74 ca bd
       0.018044364 -0.18102 -0.13436536 -0.098855935
000350 68 9f 78 be 62 86 44 3e a0 f8 16 3e b4 96 b1 be
       -0.24279559 0.19191888 0.1474328 -0.3468529
000360 f7 a8 08 3e 04 b3 55 be 8c a4 d7 bd f0 ac 45 3e
       0.13345705 -0.2086907 -0.10529432 0.19304252
000370 91 3f 86 bc 36 37 f9 bd 06 a4 4b 3d 0e e9 fe bb
       -0.016387733 -0.12168734 0.04971697 -0.007779247
000380 8f a5 56 bb 46 70 07 bd 2c b3 ab 3d 1f a8 26 bd
       -0.003275249 -0.033066057 0.08383784 -0.040687677
000390 18 4c 82 3e 8a 7e a8 3c ad 71 60 3d dc b9 17 bc
       0.2544868 0.020568151 0.05479591 -0.009260621
0003a0 54 7c a1 be 59 27 cf 3d e5 dd 79 3e 34 e3 14 3e
       -0.31540167 0.10114927 0.24401052 0.14539796
0003b0 75 5b 80 3e bb ba af 3c 99 a4 0c be c9 15 c7 3c
       0.25069776 0.021451345 -0.13734664 0.02430238
0003c0 8b 25 15 bc 3d b9 bf bb bb 83 04 3e ed df 50 be
       -0.009103189 -0.0058509395 0.12940876 -0.20397921
0003d0 3d a8 4a be a6 0b db 3d e3 a7 53 bd d3 37 ae 3c
       -0.1979074 0.10695581 -0.05167378 0.021266853
0003e0 cd 78 17 be 8a 39 db be e7 4e f4 bc dc 3a ba 3d
       -0.14792176 -0.42817336 -0.02982278 0.09093258
0003f0 bb 47 e7 3d dc 75 0a be a4 f8 c5 bd f3 6e 3c be
       0.112929784 -0.13521522 -0.09666565 -0.18401699

34 f4 [50, 25]
000000 86 1f 52 c0 81 7c 96 3f 01 4c 07 3f fb 26 38 3f
       -3.283174 1.1756746 0.5285035 0.7193448
000010 18 d5 df bf 82 2e cf 3f 34 e3 0e 3e 44 a9 65 c0
       -1.7486906 1.6186068 0.13953859 -3.5884562
000020 6f 6a ce 3f 95 43 e9 3e c2 0a 25 c0 c8 24 aa be
       1.6126231 0.45559373 -2.5787816 -0.33231187
000030 9b d6 35 c0 55 f9 0c 40 dc a4 06 c0 e0 38 1f 40
       -2.8412235 2.202718 -2.1038122 2.4878464
000040 11 c8 d3 bf 71 ec 6e c0 cc a0 bc 3e 1f 82 d1 bf
       -1.654543 -3.7331812 0.36841428 -1.6367835
000050 39 34 9b 3e fa e9 3b 3f d9 d2 fd 3f f3 4b cb 3f
       0.3031328 0.73403895 1.9829971 1.5882553
000060 12 f3 db c0 da 22 27 3f ce 0a 98 40 35 c6 a0 bf
       -6.8734217 0.65287554 4.751319 -1.2560488
000070 04 13 1c 40 b3 b3 87 3f ff 8c 82 40 50 26 94 40
       2.4386606 1.0601715 4.0797114 4.629677
000080 01 6f 11 40 0e 07 19 bf 49 3d 33 c0 71 72 9f 3f
       2.2724001 -0.5977639 -2.8006155 1.24568
000090 48 3f 95 bf f1 e6 06 c0 16 ae e3 3d a2 70 af 3e
       -1.1659937 -2.1078455 0.11117189 0.3426562
0000a0 46 d4 22 3d aa bf 18 be de 26 87 3f e3 55 ae 3f
       0.03975322 -0.14916864 1.0558736 1.361996
0000b0 6e b4 90 bf e2 44 4b bf b5 ab 2f 3f c8 2e d0 be
       -1.1305063 -0.7940198 0.6862138 -0.4066069
0000c0 5e a9 bb bf 86 a2 1f bf 53 de b8 c0 01 74 3e be
       -1.4661062 -0.62357366 -5.777139 -0.1859894
0000d0 f3 25 65 bf 1e 58 2a 40 8d f3 c1 3e b4 41 2a be
       -0.8951103 2.6616282 0.37881127 -0.16626626
0000e0 c7 fc 15 40 81 12 a1 be 07 75 01 3e 9d 4c 27 c0
       2.3435533 -0.3145943 0.12642299 -2.614051
0000f0 43 21 58 3d 44 50 ff 3f f1 4a 29 3e f2 2e 15 40
       0.052766096 1.994637 0.16532494 2.3309903
000100 5d f6 5b 3c 0e 48 f1 bc 93 8e 1a 40 84 c5 c2 3f
       0.013425437 -0.029453304 2.414952 1.5216527
000110 27 e0 a5 bd 8e f4 9f 3e fa b2 b3 bf bd 05 df 3f
       -0.08099394 0.31241268 -1.4038994 1.7423626
000120 64 85 45 c0 74 11 d6 3f 46 89 80 3f b4 a2 bd 40
       -3.0862665 1.6724076 1.0041893 5.926111
000130 38 af 6b be b7 58 55 bf 25 95 a2 3f f5 64 61 3f
       -0.2301606 -0.83338493 1.2701765 0.88044673
000140 51 ae cf 3f 91 96 08 40 1f 5f 40 c0 c4 96 cd 3f
       1.6225072 2.1341898 -3.0058057 1.6061635
000150 51 e7 bd bf 90 4e e2 3d 04 a9 c5 3f 4c 97 30 40
       -1.4836217 0.11050141 1.5442204 2.7592344
000160 4f bc 88 c0 d8 e9 75 bf c0 0c 14 40 45 c0 0f 40
       -4.272987 -0.9605994 2.3132782 2.2461102
000170 1a 43 42 c0 25 80 7f 3f 06 0e 4b 40 01 b4 18 40
       -3.0353456 0.9980491 3.172731 2.3859866
000180 cf 6f e5 3f 1d 41 5b 3f cb c6 8c be 06 16 bb 40
       1.7924746 0.8564623 -0.27495417 5.8464384
000190 ad ef 27 40 2f 68 07 40 43 cd 65 40 2f b7 52 c0
       2.6240036 2.1157339 3.5906532 -3.2924306
0001a0 ff b6 1c c0 fc f7 ff 3f a3 2e a3 40 b7 02 a8 c0
       -2.4486692 1.9997554 5.099443 -5.2503314
0001b0 c7 e7 87 3f a4 63 b2 c0 80 7a ad bf 9d 4a 99 bb
       1.0617608 -5.574663 -1.3553009 -0.004678084
0001c0 dc 07 87 3f aa 6f ce 3e 93 1c 48 c0 0d 94 ee bf
       1.0549273 0.40319568 -3.126744 -1.8638932
0001d0 ab 53 c7 3e 44 7a 05 40 05 7e 35 40 60 00 6d 3e
       0.3893102 2.0855875 2.8358166 0.23144674
0001e0 cb 62 b4 bf e8 f0 ba c0 f5 c5 2f c0 ce d3 b0 bf
       -1.4092649 -5.8419075 -2.7464573 -1.3814638
0001f0 2a ab a6 bf 26 26 c3 3e 89 01 1c c0 0d dd c6 bf
       -1.3020985 0.38115042 -2.4375937 -1.5536209
000200 e3 23 24 40 4a 53 7a be d0 86 fe be f1 57 88 3e
       2.5646904 -0.24445835 -0.4971223 0.26629594
000210 35 8e e6 3e 13 2a 30 40 c3 0d 38 c0 c1 cd 23 bf
       0.4503037 2.752568 -2.87584 -0.6398583
000220 91 b7 09 40 f9 ce e0 3f 33 93 1d c0 43 ea 5c 40
       2.151829 1.7563163 -2.4621093 3.4517982
000230 29 14 99 3e fb 79 c6 3f 81 40 75 bf 5e a5 2e 3f
       0.29898193 1.5505975 -0.9580155 0.6822108
000240 54 bb ad bf 68 6b 8f 40 21 85 dc 3f 9a fa fb 3f
       -1.3572793 4.481861 1.7228128 1.9685853
000250 19 79 0a 3c 5f 46 60 c0 9d 2d ea 3f 1a 1e 3b 3f
       0.0084517235 -3.504295 1.829517 0.73092806
000260 e6 11 fe be ca 5e 92 3f 9b f0 e4 bf de 16 72 bf
       -0.4962303 1.1435177 -1.7885927 -0.9456614
000270 f9 bd 87 bf e0 16 ec 3f c0 77 30 bf 46 07 d7 3e
       -1.060485 1.8444481 -0.68932724 0.41997737
000280 9e f8 a0 3b 84 32 31 be f0 07 92 3e eb 99 02 c0
       0.00491245 -0.17304426 0.2852168 -2.0406444
000290 d2 94 34 c0 b7 0b e9 3f 4c 26 f0 be 30 66 e7 3f
       -2.8215833 1.82067 -0.46904218 1.807806
0002a0 26 9d 54 3f f6 75 06 c0 54 a0 08 be 7d f1 f6 bf
       0.8305229 -2.1009498 -0.1334241 -1.9292446
0002b0 d7 c6 92 bf 70 b3 6f be 78 5d 07 c0 1a f0 77 40
       -1.1466931 -0.23408294 -2.1150799 3.8740296
0002c0 0d c9 df bf 58 59 dc bf c8 e4 d2 3f 0c a7 4b 3e
       -1.7483231 -1.7214766 1.6476068 0.19887942
0002d0 0b ed e9 3e 50 e1 07 40 06 a2 5f bd 26 10 dd 3f
       0.45688662 2.123127 -0.054597877 1.7270553
0002e0 43 28 30 40 16 c5 a6 3f fc b7 92 3f c7 7f 69 3e
       2.7524574 1.3028896 1.1462398 0.2280265
0002f0 fe e2 4e 3f 87 cb 3a 3f 19 3e 3f c0 90 50 0d 3f
       0.8081511 0.7296681 -2.9881651 0.55201054
000300 1b ba 32 3e 3f 3a 45 40 ce 0d 0b c0 a3 27 be bf
       0.17453806 3.08168 -2.1727176 -1.4855846
000310 2b d6 20 c0 9f bc 0f c0 6f 96 05 3f f0 e2 61 40
       -2.5130718 -2.2458875 0.5218267 3.5294762
000320 2d dd 06 c0 29 5a 13 c0 16 c3 da bf 1b c5 bf 3f
       -2.1072495 -2.302378 -1.7090786 1.4982027
000330 cd 82 85 40 4b 35 c4 40 ee cf 08 40 62 1d f0 3e
       4.172217 6.1315055 2.137691 0.46897417
000340 76 0c 14 c0 c0 e1 24 c0 18 74 15 3f f4 c1 97 3e
       -2.3132606 -2.5762787 0.5838027 0.29640162
000350 2d 4f d3 be 30 61 cc be 57 e4 f4 3e 94 b2 fd bf
       -0.41271344 -0.39917898 0.4783046 -1.9820123
000360 0f ad be bf 17 82 04 40 e1 40 2e 40 97 19 94 bd
       -1.4896563 2.07044 2.72271 -0.072314434
000370 10 32 1e 40 6e 46 bb 3f 31 10 f9 3f dc b7 00 c0
       2.4718056 1.4630868 1.9458066 -2.011222
000380 09 38 40 c0 52 7e b3 3f 72 fe 03 bf 63 d1 c2 c0
       -3.00342 1.4022925 -0.5156013 -6.08806
000390 0b cd 63 3f c7 fe 39 40 bd 99 32 c0 25 84 68 3f
       0.88984746 2.9061754 -2.7906334 0.90826637
0003a0 9f d5 8a be 7a 63 d6 3d 9e 4f 8d be d9 c6 cd 3f
       -0.27116105 0.104681924 -0.27599806 1.6076308
0003b0 14 14 89 40 a3 57 55 40 f4 51 0f 40 43 88 a6 c0
       4.283701 3.333474 2.239377 -5.2041335
0003c0 d4 a6 ab be 5a be bd bf 2d 03 83 c0 59 d4 a3 bf
       -0.33525717 -1.4823716 -4.0941377 -1.2799178
0003d0 34 0f 8b 3d 00 18 31 40 ef e7 23 40 57 0c eb 3f
       0.06790009 2.7670898 2.561031 1.8363141
0003e0 dd 5e f3 bf 28 2d 0e 40 44 29 4d 3f e1 5f fc bf
       -1.9013325 2.221506 0.8014109 -1.971676
0003f0 1d e5 e1 be e4 c0 b1 bd db 55 12 c0 db ba 00 40
       -0.44120112 -0.08679369 -2.2864902 2.0114048

35 f4 [25, 10]
000000 e9 41 cd 3e 12 82 26 be 1b f9 bc 3e f4 6d 28 bf
       0.40089348 -0.16260555 0.36908802 -0.65792775
000010 01 c8 a6 3e 52 36 a4 3e 83 bf 95 3d 81 8d ca 3d
       0.32574466 0.32072693 0.073119186 0.09890271
000020 38 01 c9 bc 02 11 ed 3e 18 db 51 be 9e 3b 5d be
       -0.024536714 0.46302038 -0.20493734 -0.21604773
000030 d9 7b 22 3e 15 2a cd bd 4f 9c 1f be 86 85 63 3e
       0.15867557 -0.10017792 -0.15586971 0.22218904
000040 9a bd 8b be 57 03 fc bd 6e 8b b7 3e 3b 89 4d 3e
       -0.27293092 -0.123053245 0.35848564 0.2007188
000050 63 e4 b7 3e bb 04 2a bf 93 5c 5c 3c 63 fc 57 be
       0.35916433 -0.6641347 0.013449806 -0.21092372
000060 9e e6 24 3e 28 78 ab 3e 50 04 c4 3e 87 90 0a 3f
       0.16103598 0.3349011 0.3828454 0.5412678
000070 37 a5 5a 3d 5f bb f6 be 21 9b 8b 3e 7d 5c ec bd
       0.053380217 -0.48189828 0.2726679 -0.11541078
000080 c5 6a eb be 41 7c 3e 3e 8d ff 11 be 8c 35 c8 3d
       -0.45979896 0.18602087 -0.14257641 0.09775838
000090 a0 6c b2 3e da d8 55 3d f0 41 cb bc 43 ce 1d bd
       0.348485 0.05220876 -0.024811715 -0.038526785
0000a0 38 1a 33 3e fc 73 0c be 36 87 92 be ec 27 ea be
       0.1749047 -0.1371612 -0.28618783 -0.45733583
0000b0 5a 5c 46 bf c8 9b aa 3c 2a b4 ea 3e 23 4b ed be
       -0.7748467 0.020826235 0.4584058 -0.46346387
0000c0 3d 0e c7 3e 5f d6 b4 be 56 1a 78 3d 3e 5f 0d 3e
       0.3887805 -0.35319802 0.06057199 0.13805863
0000d0 c7 80 13 bf a6 93 eb be 45 62 71 be 2d 8c 1e be
       -0.57618374 -0.46011084 -0.23572643 -0.1548316
0000e0 a0 9e a0 bb ef 5b 04 3f a7 a2 07 3e c1 b0 22 3f
       -0.004901722 0.5170278 0.1324564 0.63550955
0000f0 44 37 1a 3d b8 8d 7d 3e 4e 06 b4 bd dc 4a 27 3c
       0.03765036 0.24761093 -0.08790265 0.010210719
000100 f2 2b e1 be 76 80 8b 3e 6a 98 f2 3e da 50 ab 3e
       -0.4397884 0.27246445 0.47381908 0.33460122
000110 f9 67 a9 bd 18 75 17 3f 0c 70 f7 3c d9 f0 00 3f
       -0.08271784 0.59163046 0.030204795 0.50367504
000120 c7 bd 31 3d e4 82 29 bf 75 c9 7f 3e dd 01 d9 3d
       0.043393876 -0.6621535 0.24979194 0.105960585
000130 5d 34 90 3e 82 7e 92 3e 05 ca 9b be 97 ac 8c 3e
       0.2816495 0.28612143 -0.30427566 0.27475426
000140 c7 ba 34 be 4d 34 9b be 75 8e 1b be 65 a7 45 bd
       -0.17649375 -0.3031334 -0.15191062 -0.048255343
000150 43 38 bf bd 81 67 22 3f bf ad e9 3e a2 94 cd be
       -0.09336903 0.63439184 0.4564037 -0.4015246
000160 10 ea 8f 3e b7 c4 a8 bd 60 f0 b2 bd 77 06 d1 3e
       0.28108263 -0.082406454 -0.08737254 0.40825245
000170 50 17 05 3f c6 ae 46 be 0f da 21 3d e1 92 12 3e
       0.519887 -0.19402608 0.039514598 0.14313842
000180 b8 69 f0 be 70 b6 13 3e 4f c6 2c bf 10 14 ca 3e
       -0.46955657 0.14425063 -0.67490095 0.3946843
000190 1d 39 1a bf 6a 29 d8 3e 4b 59 c6 3d 09 15 8d 3d
       -0.602434 0.42219096 0.09685 0.06888778
0001a0 48 88 a7 be 66 ed 06 be 0c ab fa 3c ef ef 6a bf
       -0.32721162 -0.13176498 0.03059914 -0.9177236
0001b0 8c aa db 3d 03 1c a9 3d 00 9a 5e 3d 6e 1a 67 3d
       0.107258886 0.08257296 0.054346085 0.05642169
0001c0 95 c4 2a 3e d6 c1 06 3f 51 f4 0f be 51 85 aa 3d
       0.16676553 0.5263952 -0.14058043 0.08326209
0001d0 0b d1 e6 bd 1a fc 76 3e bf 75 82 be 12 1d e5 bd
       -0.112703405 0.24119607 -0.25480458 -0.11187185
0001e0 f3 67 9a 3d fb 30 9f 3e 62 ad 0e be 64 7e b4 be
       0.07539358 0.31092057 -0.13933328 -0.35252678
0001f0 ad 21 ba 3d 25 59 a0 3e 5e 7b 86 be 29 e0 09 3d
       0.090884544 0.31318012 -0.26265997 0.03366104
000200 fc 73 ef bd 83 ab ff 3e a8 52 bd 3e e3 9a 97 3e
       -0.11692044 0.4993554 0.36977124 0.29610357
000210 94 ee 07 3f 15 6b 76 3e ff f3 91 be 08 3f b1 3e
       0.53098416 0.24064286 -0.28506467 0.34618402
000220 c3 d5 97 3e df 46 f4 3e 3a 37 ac 3e 6f 57 25 3e
       0.29655275 0.4771032 0.33635885 0.16146635
000230 1c 63 70 3e d1 c5 cc bc 99 8c 31 3f ee 6b 27 3e
       0.23475307 -0.02499667 0.6935516 0.16349766
000240 f0 fb 78 be ae 43 91 be f6 db 8f 3d af 24 54 3e
       -0.24314857 -0.28371948 0.07024376 0.20717119
000250 d6 d1 2d be 46 5c d4 bd 47 d3 22 bf 33 7d 56 3d
       -0.16974577 -0.10369162 -0.63603634 0.052365493
000260 ff 46 1b 3e 70 79 be be c5 3e 8b 3e 5a e4 2e be
       0.15163802 -0.37202024 0.27196327 -0.17079297
000270 ef 91 81 bd 7d 39 44 bf 32 5b 79 3d d5 ec 73 be
       -0.06326663 -0.7665022 0.060877986 -0.23820813
000280 ca 23 8a 3d 0d e6 b5 3e d0 19 99 3d ae da 99 3e
       0.067451075 0.35527077 0.074756265 0.30049652
000290 2e cf e6 bd 0e 54 01 be f1 cd 2a 3f 72 96 00 3f
       -0.11269985 -0.1262972 0.6672049 0.5022956
0002a0 62 f6 53 3e ff 3a 76 be dc 17 53 be 2d d3 67 3d
       0.20699456 -0.24045943 -0.2061457 0.056597877
0002b0 88 ac 23 bf f8 9e 46 3e 57 70 42 3e 29 e6 72 be
       -0.63935137 0.1939658 0.18988167 -0.23720612
0002c0 f2 b2 2c bd ce a2 91 bd 26 0e 6d be 6e 97 32 bd
       -0.042162843 -0.07111131 -0.23149928 -0.043601446
0002d0 b3 17 8c be b8 2e ee bd 22 61 1e be ac 55 0c bf
       -0.2736183 -0.11630005 -0.1546674 -0.54818225
0002e0 06 76 c4 3c 7a a4 50 3f fd 42 db bd 9e 59 49 3e
       0.02398206 0.8150097 -0.107061364 0.19663092
0002f0 86 b9 ac 3e 01 0a 22 3f 35 10 2a 3f 88 34 ab 3e
       0.33735293 0.63296515 0.6643098 0.33438516
000300 96 1c fa 3e 4f a8 01 bf c1 4e 23 3e ad 5a ce 3b
       0.48849934 -0.50647444 0.15948011 0.0062974305
000310 94 c6 84 bd 72 70 a2 3e 78 13 2f be 9f 32 bd be
       -0.06483188 0.31726414 -0.1709727 -0.36952683
000320 4f c2 0e 3e 24 24 8c be ec 1a 44 be ec f5 25 3e
       0.1394131 -0.27371323 -0.19150895 0.16207093
000330 48 b5 3d be 05 e8 e6 3e 57 e1 fb 3d c3 72 0d bf
       -0.18526185 0.45098892 0.122988395 -0.5525324
000340 60 af 65 bf 72 00 94 3e 19 4d 24 bd 96 4b 8a be
       -0.89720726 0.2890659 -0.04011259 -0.27010792
000350 91 29 c3 bb ec bf 27 bd a9 7c 0b bf 09 d6 25 be
       -0.005955883 -0.040954515 -0.5448709 -0.16194929
000360 84 63 3f bd c5 82 3e bf 13 7b 25 3e fa 6a 99 bb
       -0.046725765 -0.7441829 0.1616023 -0.004681942
000370 e8 d3 bf 3c 0a 02 87 3d 2a fa ab 3d de 7b 29 3e
       0.023416474 0.06592186 0.083973244 0.16551158
000380 82 72 8e 3e 04 0a 9a 3e 48 f1 d5 be d9 1d c5 3e
       0.27821738 0.30085766 -0.41785645 0.38499334
000390 14 e0 87 be dd 29 f6 bd 4f 54 04 be e1 8c d8 3e
       -0.26538146 -0.120197035 -0.12922786 0.42294982
0003a0 bc 58 1a 3f 03 99 86 bc c0 07 8c 3d 99 ac f3 be
       0.6029165 -0.016430384 0.06837416 -0.4759262
0003b0 45 f2 2f 3f 68 47 64 be a2 31 89 bd 63 93 03 bf
       0.6872905 -0.22292864 -0.0669892 -0.5139677
0003c0 c7 c6 1a 3e be c8 fa bd fe 9f c4 be ca e0 75 be
       0.1511489 -0.1224532 -0.38403314 -0.24011531
0003d0 e7 ed ff 3e 58 57 97 3d 70 d9 ab 3d 5b b4 6c 3e
       0.49986193 0.073897064 0.08391082 0.23115675
0003e0 bc 60 cd be 19 f3 97 3e
       -0.40112865 0.29677656

36 f4 [10, 5]
000000 d7 db 0b bf f8 f4 05 40 f4 c8 32 bf ec d1 c8 be
       -0.54632324 2.0930767 -0.6983788 -0.39222658
000010 0e 80 22 40 7e 4b 29 3f 7b 96 7d bf c2 d6 fa bf
       2.5390658 0.66130817 -0.9905774 -1.9596789
000020 19 65 f9 3f bc 87 af be ab 18 56 3e bb 71 26 3e
       1.9483978 -0.34283245 0.20907848 0.16254322
000030 4f 08 87 bf 6d e2 67 3e da c0 c6 3f a8 15 41 40
       -1.054941 0.22644968 1.5527604 3.0169468
000040 87 37 4d be 35 5b 7e bf 3e 0f 02 be cc 8f d0 bf
       -0.20040713 -0.9935792 -0.12701127 -1.6293883
000050 7d 31 e1 bf 2b 08 ed be 14 df 90 3f 39 be c6 be
       -1.7593228 -0.46295294 1.1318078 -0.38817003
000060 c0 b2 cd 3f 19 9d ac 3d f4 5f 04 40 48 73 8e bf
       1.6070175 0.084284015 2.0683565 -1.1128931
000070 73 95 e7 3f b8 e9 67 3f d6 5c ee 3f 0a d4 fc 3d
       1.8092483 0.90591 1.8622081 0.12345131
000080 4f 60 98 bf 92 be a1 be 70 c5 18 3f 0a 0f ef bf
       -1.1904391 -0.31590706 0.59676266 -1.8676465
000090 31 6a d4 3f 4d f5 3d bf 47 4f a8 bf 28 4d 87 3f
       1.6594907 -0.74202424 -1.3149194 1.0570421
0000a0 66 6e 8b 3f 40 20 cb 3e d2 be 9a bf 7a b3 95 bf
       1.0893066 0.39673042 -1.2089484 -1.1695397
0000b0 a1 00 06 40 3a 67 81 3f 05 8d 1f 3f 96 9f a4 bf
       2.0937884 1.0109627 0.62324554 -1.2861202
0000c0 65 05 18 3f 92 cd 8b c0
       0.5938323 -4.368844
