src/vne/models/simpleModel_ini-kaimingOut.onnx (onnx, 1527 bytes, 4 tensors)

gen_model.0.bias f4 [25]
0.0 0.0 0.0 0.0 0.0 0.0 0.0 0.0
0.0 0.0 0.0 0.0 0.0 0.0 0.0 0.0
0.0 0.0 0.0 0.0 0.0 0.0 0.0 0.0
0.0
00000000: 0000 0000 0000 0000 0000 0000 0000 0000
00000010: 0000 0000 0000 0000 0000 0000 0000 0000
00000020: 0000 0000 0000 0000 0000 0000 0000 0000
00000030: 0000 0000 0000 0000 0000 0000 0000 0000
00000040: 0000 0000 0000 0000 0000 0000 0000 0000
00000050: 0000 0000 0000 0000 0000 0000 0000 0000
00000060: 0000 0000

gen_model.2.bias f4 [5]
0.0 0.0 0.0 0.0 0.0
00000000: 0000 0000 0000 0000 0000 0000 0000 0000
00000010: 0000 0000

13 f4 [5, 25]
-0.18868129 -0.1666698 0.1888927 -0.19392917 0.14890547 -0.7771358 -0.4371936 -0.25938416
-0.3444943 0.2842826 0.22276813 -0.122225724 0.7193935 -0.18173553 0.6971365 -0.38372713
-0.1850009 -0.6508831 0.47423998 0.72985804 -0.15088551 -0.005479186 0.4617692 0.02620443
-0.050826572 0.6303493 -0.051960714 -0.23850106 0.41360822 0.23140782 -0.28821307 0.7297462
0.2763345 0.5070749 0.48649755 -0.4233803 -0.15662384 0.15707894 0.090145744 0.39649028
0.5868065 0.28282517 0.14087617 -0.031271465 -0.05374023 -0.017486066 0.390983 -0.37525925
0.62197727 -0.7637917 0.6024651 -0.085554175 0.48841527 -0.64392793 -0.291213 -0.5033153
-0.3988904 -0.30483803 -0.37965366 0.43134117 0.3592708 0.057417028 0.011133618 0.027258096
0.38383257 -0.433061 -0.040178653 0.308267 -0.68375516 -0.0045003993 0.18599665 -0.39690363
0.28453943 0.6329764 0.15878539 0.26822782 0.21702531 0.48314446 0.41928348 -0.0810336
0.7121258 0.15380254 -0.44975272 -0.17220964 0.09067601 0.59208775 0.18882447 0.056760773
0.31177056 0.33479702 0.32151276 -0.25238147 -0.61862737 0.37134352 -0.32034394 -0.23204628
0.2997773 -0.0575542 -0.22933087 -0.1305801 0.22879256 0.45360616 -0.53860426 -0.68713915
-0.06857859 0.59483904 0.22084706 0.24307807 -0.92252946 0.36988834 -0.8438572 0.31635985
-0.511825 0.96235865 0.047132976 -0.48262647 -0.30447426 0.11582431 0.40975222 0.24297793
-0.023062892 0.12435288 -0.29838923 0.09799165 -0.18709488
00000000: ab35 41be 7dab 2abe 176d 413e 5e95 46be
00000010: ad7a 183e 5ff2 46bf d7d7 dfbe 00ce 84be
00000020: 8f61 b0be 7d8d 913e 541d 643e 7b51 fabd
00000030: 2c2a 383f e118 3abe 8a77 323f e277 c4be
00000040: e070 3dbe 46a0 26bf 95cf f23e fad7 3a3f
00000050: bb81 1abe be8a b3bb 036d ec3e acaa d63c
00000060: 862f 50bd 925e 213f c2d4 54bd 9f39 74be
00000070: 75c4 d33e 2cf6 6c3e aa90 93be a6d0 3a3f
00000080: b77b 8d3e a9cf 013f 3516 f93e 4dc5 d8be
00000090: 0062 20be 4dd9 203e 559e b83d c600 cb3e
000000a0: f338 163f 76ce 903e d841 103e 8216 00bd
000000b0: b71e 5cbd f03e 8fbc ec2e c83e fb21 c0be
000000c0: e739 1f3f da87 43bf 273b 1a3f 0737 afbd
000000d0: 9111 fa3e 76d8 24bf df19 95be 46d9 00bf
000000e0: 5d3b ccbe bb13 9cbe f761 c2be c0d8 dc3e
000000f0: 58f2 b73e 1e2e 6b3d c769 363c 5f4c df3c
00000100: b485 c43e 2cba ddbe 5f92 24bd 2cd5 9d3e
00000110: 940a 2fbf 1678 93bb e875 3e3e f436 cbbe
00000120: 27af 913e be0a 223f a398 223e 2855 893e
00000130: e23b 5e3e b65e f73e 53ac d63e f2f4 a5bd
00000140: e04d 363f 6a7e 1d3e fd45 e6be b957 30be
00000150: 58b4 b93d 1093 173f 345b 413e fc7d 683d
00000160: 64a0 9f3e 846a ab3e 529d a43e 2538 81be
00000170: 5d5e 1ebf bd20 be3e 1f04 a4be 8a9d 6dbe
00000180: 697c 993e f4bd 6bbd b6d5 6abe cab6 05be
00000190: 9948 6a3e 113f e83e f8e1 09bf 5ae8 2fbf
000001a0: ef72 8cbd 5f47 183f bb25 623e 75e9 783e
000001b0: e42a 6cbf 0162 bd3e 0707 58bf ebf9 a13e
000001c0: f706 03bf 235d 763f 820e 413d d11a f7be
000001d0: 0de4 9bbe 4c35 ed3d 0bcb d13e 35cf 783e
000001e0: 64ee bcbc b9ac fe3d 79c6 98be d9af c83d
000001f0: cd95 3fbe

14 f4 [25, 5]
-1.9987924 1.8541033 -1.7058668 6.22017 3.547453 -0.97146934 4.5277395 -2.6801322
0.42355144 2.000756 -4.2367973 1.4339494 -0.80868876 1.8652463 -0.19093218 5.18139
-0.8250579 -1.9221395 -0.11258402 -0.9027536 3.6332257 -2.810547 -2.8729053 -1.2557418
1.8418748 1.6287813 -2.6195557 -2.4563823 0.45782173 -5.9139915 -1.7883607 0.16745119
0.9038776 6.2562475 -3.3608642 0.6856081 -0.34231502 -1.9567438 0.5121441 -2.1954176
-5.6604085 4.4212937 -0.24092482 2.4343 -0.64188236 3.047004 -0.6794396 6.0574226
3.1605082 0.5122709 2.402286 0.10576562 -0.043778777 -1.4873723 -4.7765102 3.2718947
2.6682653 -0.83672094 3.917783 2.8548408 -2.334463 -1.0769683 0.0064362725 -1.3240225
-1.975579 -1.1057487 2.8871353 -2.8434596 -0.75997543 -0.17520042 1.9758565 4.5338745
-1.8627745 -3.5425196 1.0051457 0.02582068 2.5887976 2.3379958 -0.6001026 -5.45676
2.6609197 1.7684324 0.5702656 2.5366645 1.3124255 -3.5538874 -4.2324634 3.5780454
-6.5566926 2.1558363 3.5056078 -3.2688951 0.47565514 -2.550489 2.5256102 3.015095
-0.98769516 -2.0777586 -4.6526446 -1.6485431 0.616054 2.516519 -2.273682 -3.5496635
-0.24604173 -0.95287853 1.2651216 1.0352882 2.113244 -1.0971496 0.04422867 0.7241443
3.0042 5.403312 -3.6333652 2.7576802 -1.5935363 -2.5838108 -3.2473252 -1.4654609
3.250166 -3.5010471 -1.8216386 -0.581438 2.2381518
00000000: 6ed8 ffbf 4253 ed3f d859 dabf a20b c740
00000010: 7809 6340 37b2 78bf 3ee3 9040 4987 2bc0
00000020: bcdb d83e 630c 0040 d893 87c0 a78b b73f
00000030: 3a06 4fbf 64c0 ee3f ba83 43be f2cd a540
00000040: ff36 53bf ab08 f6bf 7392 e6bd dc1a 67bf
00000050: c586 6840 01e0 33c0 aedd 37c0 26bc a0bf
00000060: 8ec2 eb3f e87b d03f cda6 27c0 5e35 1dc0
00000070: 9c67 ea3e 6b3f bdc0 01e9 e4bf 5378 2b3e
00000080: 8664 673f 2e33 c840 6618 57c0 0384 2f3f
00000090: ea43 afbe 9576 fabf e01b 033f b981 0cc0
000000a0: 1122 b5c0 3d7b 8d40 ffb4 76be 92cb 1b40
000000b0: 6752 24bf 1d02 4340 c1ef 2dbf 68d6 c140
000000c0: c445 4a40 3024 033f 0ebf 1940 a59b d83d
000000d0: 6051 33bd 3762 bebf 2cd9 98c0 b966 5140
000000e0: dcc4 2a40 5833 56bf f5bc 7a40 b6b5 3640
000000f0: d767 15c0 19da 89bf 5ee7 d23b 9279 a9bf
00000100: c6df fcbf 2c89 8dbf d3c6 3840 3efb 35c0
00000110: c08d 42bf bd67 33be dee8 fc3f 8015 9140
00000120: 656f eebf a4b8 62c0 9da8 803f e485 d33c
00000130: dcae 2540 b9a1 1540 53a0 19bf c79d aec0
00000140: 824c 2a40 fe5b e23f edfc 113f b658 2240
00000150: 8ffd a73f e472 63c0 5770 87c0 b2fe 6440
00000160: 6dd0 d1c0 39f9 0940 e15b 6040 9435 51c0
00000170: 1289 f33e 363b 23c0 99a3 2140 51f7 4040
00000180: 97d9 7cbf fff9 04c0 77e2 94c0 7603 d3bf
00000190: b7b5 1d3f a60e 2140 0284 11c0 b02d 63c0
000001a0: 5df2 7bbe d9ef 73bf 81ef a13f 5384 843f
000001b0: 643f 0740 666f 8cbf 1f29 353d 8561 393f
000001c0: d044 4040 efe7 ac40 0e89 68c0 d57d 3040
000001d0: fff8 cbbf 285d 25c0 2dd4 4fc0 3994 bbbf
000001e0: b802 5040 2811 60c0 742b e9bf 1fd9 14bf
000001f0: e13d 0f40
