src/vne/models/simpleModel_ini-kaimingIn.onnx (onnx, 1527 bytes, 4 tensors)

gen_model.0.bias f4 [25]
0.0 0.0 0.0 0.0 0.0 0.0 0.0 0.0
0.0 0.0 0.0 0.0 0.0 0.0 0.0 0.0
0.0 0.0 0.0 0.0 0.0 0.0 0.0 0.0
0.0
00000000: 0000 0000 0000 0000 0000 0000 0000 0000
00000010: 0000 0000 0000 0000 0000 0000 0000 0000
00000020: 0000 0000 0000 0000 0000 0000 0000 0000
00000030: 0000 0000 0000 0000 0000 0000 0000 0000
00000040: 0000 0000 0000 0000 0000 0000 0000 0000
00000050: 0000 0000 0000 0000 0000 0000 0000 0000
00000060: 0000 0000

gen_model.2.bias f4 [5]
0.0 0.0 0.0 0.0 0.0
00000000: 0000 0000 0000 0000 0000 0000 0000 0000
00000010: 0000 0000

13 f4 [5, 25]
-0.35040337 0.57932085 0.2992632 0.05986065 -0.11678467 -0.35662103 -0.36515576 -0.5112045
-0.24123007 0.03610109 -0.14357178 0.0068969987 0.34487873 -0.691024 -0.6799674 -0.569162
0.41560176 0.01783778 0.38776392 -0.18767709 0.52722925 0.4378019 0.23008992 -1.3038036
-0.13059928 -0.08494381 0.2583419 0.22671531 -0.28144786 -0.50552225 0.46660408 1.1489993
0.14500676 0.09995235 0.04229091 0.49755618 -0.022192705 -0.082056165 0.23567401 -0.19301438
1.062558 0.03223475 -0.01842095 0.52898973 -0.09075794 -0.28074965 -0.30020085 -0.18385066
0.46392468 0.7180118 -0.057547763 0.79391 -0.024922961 0.0255463 -0.024360213 -0.10349283
-0.15937479 -0.26706353 -0.56231034 -0.69570524 0.057226647 -0.1541141 0.11541182 0.06570544
0.5036519 0.09074928 -0.28941503 -0.007557394 -0.060339928 0.16409935 -0.25319216 -0.33995023
-0.43197963 0.0479077 0.25790575 -0.2338201 0.059340622 0.5063234 0.32220116 0.4331194
-0.60489583 0.094190724 -0.100354664 0.8131808 -0.032382566 -0.4612 -0.01690306 -0.37069884
1.0002794 -0.19517611 0.11260814 -0.31300762 -0.11256817 -0.14420474 0.36927524 -0.07034877
-0.23278834 0.16666655 0.2957199 0.56145656 -0.029305974 -0.028431654 0.46230406 -0.5377418
0.23992537 -0.11467601 0.24161841 -0.2646009 0.2571531 -0.018314065 -0.08216641 0.27641076
0.4419807 0.060501907 0.127419 0.24289043 -0.21991788 0.06387512 -0.7168254 0.3650921
0.6810904 0.685047 -0.14000355 0.31137294 0.57935697
00000000: 1268 b3be 5f4e 143f 0739 993e 7130 753d
00000010: cd2c efbd 0897 b6be b2f5 babe 4cde 02bf
00000020: 0405 77be bdde 133d 7b04 13be 3800 e23b
00000030: f293 b03e f3e6 30bf 5812 2ebf 9ab4 11bf
00000040: c1c9 d43e 8920 923c fe88 c63e 6c2e 40be
00000050: 7ff8 063f 9227 e03e b19c 6b3e 09e3 a6bf
00000060: d1bb 05be 05f7 adbd 6445 843e 0f28 683e
00000070: ef19 90be e869 01bf bbe6 ee3e 6912 933f
00000080: a77c 143e d1b3 cc3d 3c39 2d3d afbf fe3e
00000090: 7acd b5bc 100d a8bd 8754 713e 90a5 45be
000000a0: e701 883f 9608 043d 88e7 96bc df6b 073f
000000b0: 4ddf b9bd 6bbe 8fbe edb3 99be 5943 3cbe
000000c0: 8987 ed3e 9fcf 373f 34b7 6bbd b03d 4b3f
000000d0: 3d2b ccbc 7946 d13c 128f c7bc 0df4 d3bd
000000e0: 2533 23be 8dbc 88be 92f3 0fbf bd19 32bf
000000f0: 7d66 6a3d 16d0 1dbe 085d ec3d 9390 863d
00000100: 55ef 003f c2da b93d 352e 94be 04a4 f7bb
00000110: 0027 77bd a909 283e 67a2 81be f50d aebe
00000120: 6f2c ddbe dd3a 443d 390c 843e 896e 6fbe
00000130: 270f 733d 699e 013f 8df7 a43e d3c1 dd3e
00000140: 74da 1abf 11e7 c03d bf86 cdbd 9e2c 503f
00000150: 95a3 04bd 6822 ecbe 4978 8abc 3dcc bdbe
00000160: 2809 803f 3fdc 47be 199f e63d 8942 a0be
00000170: 248a e6bd 68aa 13be a511 bd3e 0413 90bd
00000180: 1160 6ebe a3aa 2a3e 9968 973e 9ebb 0f3f
00000190: 1513 f0bc 80e9 e8bc 1eb3 ec3e 72a9 09bf
000001a0: ffae 753e 42db eabd d16a 773e c579 87be
000001b0: 92a9 833e 6107 96bc dd46 a8bd b685 8d3e
000001c0: 4b4b e23e d9d0 773d 207a 023e 45b8 783e
000001d0: 2732 61be f5d0 823d df81 37bf 5aed ba3e
000001e0: f15b 2e3f 3d5f 2f3f 175d 0fbe 466c 9f3e
000001f0: bd50 143f

14 f4 [25, 5]
-14.012314 6.1352854 4.7355423 5.9977593 4.219135 5.170714 -7.388619 11.0598545
-1.6279525 -0.4205614 4.494901 -3.653191 -11.581806 -12.539043 5.31081 -16.103462
-3.7778618 -13.449245 -4.133114 -11.245579 9.683947 6.1037455 -5.8777394 -16.25298
-0.53032416 -11.328405 -9.159004 3.8429902 8.216163 6.706987 -8.940666 12.082921
17.552235 8.404649 -1.6902859 -7.4447 3.0327654 -10.456197 13.823384 -21.636936
-14.671947 0.6216472 8.06261 15.526559 5.5385613 9.099548 4.3003964 10.085552
0.4236334 -0.9973151 -8.340709 8.601274 5.3887734 4.5631776 7.383499 12.969095
10.096407 -7.1290216 10.210869 -14.4626875 7.6669383 0.8088103 4.307931 10.812242
4.619192 11.118386 2.3332002 -22.065233 4.2401867 7.0143976 -6.2879157 -10.724164
7.307888 -29.775513 3.1537197 -4.146429 -7.8237696 -6.4982657 12.947297 -9.8238
-4.835115 0.8925251 -1.5660921 4.374259 2.9418237 8.209102 6.2934775 15.155175
6.590907 11.380938 -6.938827 -5.2923408 2.6541812 -13.874841 5.7384133 5.2411375
4.6349053 -7.6590333 -15.554461 3.582682 -17.992414 -13.118264 6.517415 -4.35753
-0.039294563 -6.906111 -7.717491 17.77486 18.66068 -11.211064 -0.51192284 0.24835351
19.466219 -1.9980882 6.8725605 -4.6610374 3.7548633 -6.1802154 -5.4860015 -3.6406503
5.2510204 -1.697488 3.1798217 0.653459 -3.6093283
00000000: 7032 60c1 4254 c440 9089 9740 a5ed bf40
00000010: 2703 8740 7d76 a540 916f ecc0 2af5 3041
00000020: bf60 d0bf d353 d7be 3bd6 8f40 e2cd 69c0
00000030: 144f 39c1 ec9f 48c1 28f2 a940 e4d3 80c1
00000040: 7dc8 71c0 1c30 57c1 7842 84c0 e4ed 33c1
00000050: 72f1 1a41 e251 c340 7116 bcc0 1a06 82c1
00000060: 53c3 07bf 2641 35c1 488b 12c1 8df3 7540
00000070: 6775 0341 a39f d640 f80c 0fc1 a553 4141
00000080: fa6a 8c41 7179 0641 4a5b d8bf fb3a eec0
00000090: d418 4240 954c 27c1 952c 5d41 7218 adc1
000000a0: 4bc0 6ac1 4524 1f3f 7300 0141 c96c 7841
000000b0: e53b b140 c097 1141 d99c 8940 6c5e 2141
000000c0: 7ae6 d83e 0b50 7fbf 8b73 05c1 d19e 0941
000000d0: d570 ac40 8d05 9240 a045 ec40 6a81 4f41
000000e0: e28a 2141 f220 e4c0 b85f 2341 2b67 67c1
000000f0: 8f57 f540 310e 4f3f 92da 8940 f1fe 2c41
00000100: 6cd0 9340 e9e4 3141 2753 1540 9985 b0c1
00000110: 9caf 8740 f275 e040 9b36 c9c0 2d96 2bc1
00000120: 38da e940 4034 eec1 8bd6 4940 8caf 84c0
00000130: 525c fac0 cbf1 cfc0 2128 4f41 492e 1dc1
00000140: 43b9 9ac0 867c 643f b575 c8bf eef9 8b40
00000150: d746 3c40 7b58 0341 2b64 c940 997b 7241
00000160: b6e8 d240 5218 3641 df0a dec0 db5a a9c0
00000170: 1bde 2940 59ff 5dc1 15a1 b740 66b7 a740
00000180: 2551 9440 cd16 f5c0 12df 78c1 a94a 6540
00000190: 77f0 8fc1 69e4 51c1 aa8e d040 e370 8bc0
000001a0: 56f3 20bd dcfe dcc0 b0f5 f6c0 ea32 8e41
000001b0: 1349 9541 8560 33c1 600d 03bf 6250 7e3e
000001c0: d1ba 9b41 5bc1 ffbf 04ec db40 3827 95c0
000001d0: ae4f 7040 53c4 c5c0 538d afc0 6a00 69c0
000001e0: 5c08 a840 4947 d9bf 3382 4b40 1749 273f
000001f0: 3cff 66c0
